transformer_market/outputs/transformer_market/dataset/ibex_w60_p5.npz (npz, 200446 bytes, 2 tensors)

X f8 [1200, 60, 13]
000000 a7 09 6e 9e 27 0a 72 bf 3a 57 75 61 e4 cc 7a 3f
       -0.004404215584943228 0.00654305659494075
000010 05 4f cf de 76 6f a2 bf 00 e4 ab bf e4 7d 78 3f
       -0.03600665540548501 0.00597943644492549
000020 00 00 e2 3e cf 41 d2 be 10 39 01 88 fd ba 8a 3f
       -4.352824346409712e-06 0.013051968300854117
000030 61 e9 de c0 11 52 88 3f ef 6a e4 45 88 cf 8d 3f
       0.01187528486103834 0.014555992730085758
000040 c1 a1 a5 b8 fa 43 7f bf 9d 76 42 57 36 5e 61 3f
       -0.007633189563741317 0.002120119223106466
000050 60 04 bb 71 5a 8d 73 3f 5f 3f 8e 54 88 f1 79 3f
       0.004773476884737254 0.006333859005181213
000060 08 59 83 c9 dd ec e9 bf b4 e0 43 16 f2 48 6c bf
       -0.8101643501093188 -0.003452751947517008
000070 3e f8 48 73 63 8b 85 bf cd 1e a1 39 0f e5 a4 bf
       -0.01051976867267623 -0.040810085091434446
000080 00 e0 13 f3 57 a7 53 3f 00 4e f4 9b ba 95 56 bf
       0.0011995657808352433 -0.0013784715991435048
000090 11 9e e3 9c b6 69 8a 3f b3 53 ab af 5b 48 88 3f
       0.012896944678188612 0.01185676221704477
0000a0 4e 3c b0 28 6e 24 86 3f c4 a9 fa 25 fb 02 6e bf
       0.010811672798835794 -0.00366353084958357
0000b0 1b 11 ef f4 b1 89 6c 3f 85 49 e8 54 f4 f6 6d 3f
       0.0034836269109935875 0.0036577961066168196
0000c0 b5 3f bd 96 d3 fc 68 3f 1c 83 cf 9b 85 1d f8 bf
       0.0030502445787660933 -1.5072074972487775
0000d0 f8 4c 0e 05 09 b7 61 3f 1a 0a c8 48 79 1a 94 bf
       0.002162473313043752 -0.019632239405846
0000e0 f7 11 d2 f4 8f 18 96 bf 00 e0 ad c6 6e 1f 36 bf
       -0.02157807285085941 -0.0003375668954315181
0000f0 00 b8 5b b0 3d c0 5e 3f 12 2a 96 50 6e 3f 84 3f
       0.0018768885069522234 0.009886609873110994
000100 ba 9c 35 1a b6 3a 87 3f 54 b4 5a 76 2c ff 90 3f
       0.01134245173916636 0.016598410342954686
000110 d1 93 f3 fe 33 91 6e 3f 00 00 00 00 00 00 00 00
       0.003731347612858184 0.0
000120 66 ab 49 1e b1 5d 8a 3f 54 5e 3d eb 95 9a 69 3f
       0.012874015557107387 0.003125469980584753
000130 cf 4f ce 18 e9 ad ec bf 23 61 44 65 d0 b4 92 3f
       -0.8962293133249605 0.018267875843862257
000140 46 17 33 cb 65 ed 5e bf 95 46 5e 43 ab 62 79 bf
       -0.0018876546935628498 -0.0061976137129861235
000150 80 9b db d4 fa 9d 8a 3f 40 37 d0 35 c5 2a 95 3f
       0.012996635075479324 0.020670968446260263
000160 08 9d 36 fa 23 57 86 3f 2e 20 ad 27 81 d2 88 3f
       0.01090839488354202 0.01212025549251913
000170 d5 ae 7d 5f a8 8f 8b 3f d0 dc 75 f1 d6 d7 83 3f
       0.01345759908118486 0.00968902515772499
000180 4c de 0f 91 29 28 5e 3f 9e 1b 5a b7 4f 2d 60 3f
       0.0018406301426220515 0.0019747311551471932
000190 32 1f 14 21 19 81 64 3f 15 6a 51 6a 9a 4f b8 bf
       0.0025029650502154327 -0.09496464820532709
0001a0 b1 34 70 ac d6 f0 78 bf da 7c 98 c1 4e 8f 7a 3f
       -0.006089056557368953 0.006484325067076935
0001b0 6d ec 6a fb 7c b1 76 bf 00 c9 fe 56 85 be 71 3f
       -0.005540359698609537 0.004332085474674452
0001c0 80 eb be e6 f5 3a 8e 3f 51 66 f0 7d e7 c3 84 3f
       0.014760895828535459 0.010139282732825413
0001d0 07 d4 dc 73 55 c9 88 3f 0a d0 39 e4 5c 62 87 3f
       0.012102763746591817 0.011418081011676424
0001e0 e7 82 8b be 75 ba 7e bf 32 de 13 f7 a1 ef 4c 3f
       -0.007502040804610677 0.0008830586286014462
0001f0 e8 f8 cf 05 76 9d 68 3f 4b 85 83 90 28 d8 63 3f
       0.003004770768256216 0.002422408320953783
000200 42 f3 ca 3d d2 e0 ec bf d4 71 13 07 79 34 6f bf
       -0.902444000901234 -0.0038092006512739727
000210 15 cd 7c dc 39 ff 7c 3f 51 de a8 76 db 6b 84 bf
       0.007079340000746078 -0.009971346434311775
000220 00 e8 3f f6 38 7d 4b bf 00 e8 75 6a d0 60 87 3f
       -0.0008389022955264114 0.011415127037924577
000230 71 5b 37 82 be c1 84 3f 0f ce e5 45 81 d5 88 3f
       0.010135162686237572 0.012125978417976161
000240 b3 16 18 ac 81 d1 89 3f bc a7 ac 24 d5 3b 62 bf
       0.012606633247752219 -0.002225796027592401
000250 31 fc 3e 87 c4 e6 71 3f 31 43 53 d0 ba 9b 78 3f
       0.004370467842760782 0.006007890454569773
000260 ab 65 5b 03 de ee 63 3f 02 a1 27 cb 32 ba d0 bf
       0.002433236712801009 -0.26136464919410696
000270 d9 85 e6 42 59 5a 80 bf 36 64 a3 c3 00 de 64 3f
       -0.007984826425686474 0.002547265522576693
000280 5d 4a 1a 03 9d 33 80 bf c0 95 6d c1 5c 61 80 bf
       -0.007910944611727528 -0.007998203900295375
000290 00 ba eb a9 eb e4 6e 3f ce d4 1f d5 d3 7d 83 3f
       0.0037712672050169704 0.009517340604342197
0002a0 f0 78 ac 66 34 ad 88 3f 43 85 5b 7a 58 56 8f 3f
       0.012049111731866152 0.015301409944586402
0002b0 0f 2b e7 59 f8 12 83 bf d0 f5 e7 fc 77 d7 71 3f
       -0.009313526385900354 0.004355877592840909
0002c0 21 39 0d 04 a7 06 5a 3f e3 08 7c 45 79 4f 64 3f
       0.0015885001195843978 0.002479302271127458
0002d0 3b f7 31 42 47 dd f4 bf 73 9f 78 71 69 a0 87 3f
       -1.3040230355977218 0.011536430144658749
0002e0 3f e5 1d 61 27 6a 88 3f d3 97 d0 de 34 26 8d 3f
       0.011921222354191683 0.014233029413002562
0002f0 00 e5 06 0c dd 94 71 3f 80 22 a8 d0 e6 15 8e 3f
       0.0042923578879989766 0.0146902115275378
000300 fc 93 4f b0 4c 91 83 3f ce 58 89 3a b9 bc 88 3f
       0.009554480677204318 0.012078711604015881
000310 d2 f1 7d eb d1 a8 93 3f 7b 12 4d 74 28 71 85 3f
       0.019198684690751318 0.010469738053538116
000320 da 21 44 d2 a4 1a 65 3f c0 10 49 7b e9 6c 79 3f
       0.0025761813323052886 0.0062073822378502785
000330 7b d6 95 3e 4c 6f 69 3f 3d 09 da 86 34 16 d6 3f
       0.0031048287534599073 0.34510529679404894
000340 01 19 79 42 78 d8 73 bf 73 69 a7 8a b5 eb 86 bf
       -0.004845113529489576 -0.011191767019160115
000350 63 94 70 a1 19 7e 9b 3f 00 d8 37 3c 6d bd 48 3f
       0.02684822128152965 0.0007550032973415721
000360 80 64 58 1f 6d 47 81 3f 8e 64 36 ec de b5 83 3f
       0.008437016028482569 0.009624234756119312
000370 7e 5c f8 23 66 53 87 3f 15 b3 ab bc fe 72 84 3f
       0.0113895396926138 0.009984960682652347
000380 2e f4 e5 4f 8d e0 4d bf 12 4d f5 9f fc 0f 4b 3f
       -0.0009117784500599685 0.0008258803863249473
000390 5f c6 06 4f be e3 80 3f 3b 13 c0 20 1d c6 67 3f
       0.008246886049934675 0.0029020851998232933
0003a0 d8 6a ab cb 68 45 e6 3f 34 26 16 a3 47 82 91 3f
       0.6959728219911439 0.017098540619860894
0003b0 18 fd bc 11 45 91 88 3f 77 d8 f3 5f 00 23 a2 3f
       0.01199583015806964 0.03542328997893745
0003c0 80 74 bf b9 a1 81 90 3f 80 f5 3e 24 7d 93 98 3f
       0.016119505846166948 0.024000125252987115
0003d0 14 2e d6 56 60 7a 84 3f 44 b8 08 70 cd 38 88 3f
       0.009999039316219295 0.011827092153080206
0003e0 ff f4 5c 79 1d e6 92 3f 94 8e b4 10 6b 08 8f 3f
       0.01845594456903132 0.015152775237374606
0003f0 89 a5 7d e5 d2 f9 4e 3f cb 45 2f 39 57 40 64 3f
       0.0009453086631598255 0.002472086294326136
000400 29 7c 6f b9 fe 61 6a 3f 93 2f 1a 81 a2 bc 01 40
       0.0032205557904343607 2.217106827365521
000410 16 27 b7 d0 a9 5a 61 3f 93 d1 d7 e3 86 5a 92 3f
       0.0021184269623731973 0.017923457771716732
000420 c3 de a3 59 2d 7c aa 3f 40 d0 78 1c 04 19 90 3f
       0.05172864646186561 0.01572042869356971
000430 00 68 31 5b ba 16 98 3f a6 7e 67 ea c5 fa 83 3f
       0.02352420026395663 0.009755655494643033
000440 07 ec 30 08 10 f8 86 3f 64 19 a4 29 59 53 8a 3f
       0.01121532940861948 0.01285428675010953
000450 b6 37 78 5f 73 c7 37 3f 67 eb 26 3a ec c0 74 3f
       0.0003628403351009184 0.00506679798348384
000460 93 b5 2e 8e 60 69 7e 3f 28 a4 bb e0 cf 9c 6a 3f
       0.007424714250118386 0.0032486019243731686
000470 9f 28 8f e2 8e 3f e1 3f 69 20 53 0b fd cd 77 3f
       0.539008562563385 0.00581168027310506
000480 5d ee 0f 64 99 3d a0 3f f7 52 69 e6 ae 48 a8 3f
       0.03171996447050838 0.047429528833765326
000490 c0 1a 78 d6 6a 92 92 3f 80 3d 0b 11 a4 b0 9b 3f
       0.018136662807615833 0.02704101900127176
0004a0 4c ca 1f 7f 1b 97 83 3f 23 15 28 ee c8 bd 86 3f
       0.009565558259031402 0.011104173438989456
0004b0 eb 59 6e 56 55 c9 82 3f 56 7e 8c b9 cb 5f 5a bf
       0.009173075390020954 -0.0016097535610199074
0004c0 40 fa 9d 3e 5a 7a 7b 3f 91 c2 96 1b 0c f8 4b 3f
       0.006708481328927152 0.0008535441513029697
0004d0 fa d8 be ea 91 6e 6c 3f 69 0f 1b 26 d5 fc 00 40
       0.003470692628947278 2.123453424168407
0004e0 3c 3e 94 aa 3c fa 86 bf 40 db 32 74 bf 5b 82 3f
       -0.011219476657543408 0.008964057668305991
0004f0 88 88 b9 44 18 f6 ad 3f 00 e7 19 88 95 32 73 3f
       0.05851817931103748 0.004686912639607632
000500 00 32 f2 c1 5f ed 89 3f a5 dd e5 d6 60 c9 85 3f
       0.012659786325706968 0.01063800483528505
000510 dc 81 25 6f bb 8b 84 3f 65 9e 3f 84 87 3e 9a 3f
       0.010032142953321825 0.025629155585106384
000520 36 8a 61 d5 3e 82 49 3f b4 51 df d9 a8 ef 92 3f
       0.0007784659199042202 0.018492353723404256
000530 c3 42 bf 1f 84 0b 7a 3f bf 62 4e 82 8c 88 74 3f
       0.006358638867781155 0.005013035643877727
000540 2c 70 0f 81 8d c2 f9 3f b1 be 87 60 ac e2 92 3f
       1.6099982301157167 0.018442815200556854
000550 4a b9 9f 15 55 83 a0 3f e0 51 0a a6 c6 5c b2 3f
       0.03225198639835243 0.0717281489726882
000560 00 e4 94 88 1a b8 95 3f 80 34 4b 8e 1f 82 9c 3f
       0.021210112177161733 0.027840130863115764
000570 bf 25 c8 72 ee d8 85 3f 93 2a a2 7d d0 ba 85 3f
       0.01066767013346037 0.010610226472882267
000580 51 1a 07 88 bc 91 89 3f 20 d2 6b bb 5b 3d 7a 3f
       0.012485001469838471 0.006406172112054992
000590 5e a7 0b ed c6 67 61 3f 51 9b 8c 4a b2 47 70 3f
       0.0021246800682676445 0.003974625062972263
0005a0 6d 7c 61 a0 49 b0 74 3f 23 f1 ed 5b 8e 96 e2 bf
       0.005050933459727164 -0.5808784289834289
0005b0 2c 94 91 b2 62 d5 65 bf 17 34 ae 63 6c 93 89 3f
       -0.002665226715679944 0.012488219062811763
0005c0 ea ae ed 64 72 6e a9 3f c0 85 7f 72 78 5f 90 3f
       0.04967076761280771 0.01598919104424623
0005d0 40 a6 d5 ba 2d 1b 97 3f fb ea be 9a 19 5b 85 3f
       0.02256461575362878 0.010427665743795602
0005e0 1a 44 53 b1 40 80 84 3f ae b9 d7 ce 40 72 8a 3f
       0.010010247623002445 0.01291323310121303
0005f0 ba a2 0b f6 0c ff 43 bf 55 d8 af 18 87 87 82 3f
       -0.0006102383886999665 0.00904756111229347
000600 a5 fa 65 9f bf aa 6a 3f 3c 7c eb 43 3e 54 74 3f
       0.003255247366893715 0.004963153098940739
000610 1e 27 85 41 e6 68 e3 bf 39 61 96 d7 94 05 6a bf
       -0.6065551070871356 -0.003176489550878039
000620 6f a4 35 73 b9 76 7d 3f ee e1 10 68 9e d5 a3 3f
       0.007193302549560617 0.038739156916964265
000630 80 f2 ae b7 15 f3 84 3f 40 92 86 cd 8e c4 91 3f
       0.010229272525856148 0.017351371092120482
000640 0b e3 04 73 f2 45 85 3f 61 7d 85 9a de 7d 84 3f
       0.010387319693664595 0.010005702105159999
000650 bf 73 f7 ac f7 1f 97 3f b9 4d 2c 3c 9a b9 80 bf
       0.022582883770031034 -0.008166508637748803
000660 ab bf 60 f4 34 f7 80 3f a2 fe 23 ad 30 fb 78 3f
       0.008284009654829413 0.006098928586879689
000670 4a 86 83 98 59 35 76 3f a1 6e 6d b5 c0 0d e4 3f
       0.005421972258973515 0.6266788047318707
000680 14 8e 3d 9d d0 41 68 3f 96 4a 81 b6 a4 c9 71 3f
       0.0029610704895490867 0.004342692766004538
000690 bb 1f 90 54 aa c3 9c 3f 00 fb ab dd 14 aa 83 3f
       0.028090154086413337 0.00960174848068851
0006a0 80 35 f7 d6 f4 61 93 3f 8d cd 7d 34 80 e4 83 3f
       0.018928361530745175 0.009713174440298978
0006b0 17 9b 4c e0 dd b7 83 3f b1 0f 00 4f c7 8c 8a 3f
       0.009628041656083703 0.012963826273342112
0006c0 fc 27 77 5c 0b f6 80 3f cc d7 8f 45 41 a7 6b 3f
       0.008281792411157333 0.00337565182098396
0006d0 be 68 63 8a ce f6 55 3f ca e7 5a 9a 69 82 76 3f
       0.0013405816076131195 0.005495464812776471
0006e0 a3 be 64 6e 65 18 80 bf 81 ee 5d 34 77 8a 80 bf
       -0.007859032088702483 -0.008076602254497136
0006f0 88 ea ed a2 2f a9 7e 3f 1e a2 37 15 8c e5 81 3f
       0.007485567169050918 0.008738607785702842
000700 00 10 da ac b3 15 24 bf 00 2e e4 1a c6 11 85 3f
       -0.0001532346563416498 0.010287807174356622
000710 89 0e 60 d8 ca 4c 84 3f 38 a2 7d e4 18 92 83 3f
       0.009912094810722099 0.00955600211428119
000720 95 fb 1e 6b d2 36 92 3f 0f f2 38 e8 32 69 71 bf
       0.017787254131458836 -0.004250716072018892
000730 5b a8 88 02 69 10 80 3f fc 0b ac 2e c8 47 77 3f
       0.007843799962831513 0.005683690988692366
000740 ed 64 77 7c 2e 1c 76 3f 0c f3 91 6c a9 ca f0 3f
       0.0053979698054373694 1.0494779816646682
000750 79 9c ff ab 7e 44 93 3f c4 b0 66 68 3c 18 80 3f
       0.018815974472002204 0.00785872644049624
000760 b7 e4 6b 3d 17 ae 9b 3f 80 01 60 8f 52 41 8e 3f
       0.027031291126125647 0.014773030281504118
000770 00 25 b3 5c 57 bd 9c 3f 77 0c b1 81 e7 71 86 3f
       0.028066029580064544 0.010959442754147937
000780 01 f2 d2 86 f8 4d 85 3f eb 1f 06 88 97 4c 92 3f
       0.010402623762609588 0.017870299985162246
000790 3b 0a 49 63 8c 03 85 3f fc 19 49 b5 5a 8d 5b 3f
       0.010260674266764904 0.0016816507169480346
0007a0 48 f5 04 1a f1 7e 78 3f 11 7e d6 6e 6e d1 74 3f
       0.00598043613746075 0.005082541826964896
0007b0 a2 f7 86 36 e4 9f e0 3f 7b 07 5e 28 1d 3e 79 3f
       0.5195180001244248 0.006162752053457394
0007c0 d6 0c 9d d4 51 16 91 3f 4a 62 dc 1f 3f 66 a8 3f
       0.016686705209633633 0.047655079497591915
0007d0 00 44 0a 54 9a 7d 92 3f 20 52 4b bd 1b 5a a0 3f
       0.018057261828804627 0.03193747220726473
0007e0 69 82 3f b3 c9 81 84 3f 79 52 5b 05 42 fa 83 3f
       0.01001317575713863 0.009754672802423802
0007f0 9a f5 12 8f 0f 27 88 3f 99 ca 15 48 6c 39 78 3f
       0.011793252519391829 0.005914137816363984

y_reg f8 [1200]
000000 c0 a0 51 a8 fa 35 5d bf ba c9 7c e5 8b 70 83 3f
       -0.001782889158926479 0.0094920091065419
000010 12 10 4f 5a ca 3b 54 3f 88 5b 57 1e 95 2b 96 3f
       0.0012349582768687068 0.02165062902153239
000020 7f d6 36 eb 3a 8c 7c 3f b5 f6 05 85 10 e6 91 3f
       0.006969671393951437 0.01747918903264774
000030 b8 27 88 12 87 12 7a 3f 84 f5 c7 3f 7e 43 76 3f
       0.006365325571559603 0.00543546024391384
000040 21 a3 f6 ef 6c 17 66 3f 18 cb 49 77 1d 4c 8c 3f
       0.00269671704127851 0.013817053034676216
000050 5b c9 bb e8 2a a6 7b 3f 0a 08 2b 25 6c 50 62 3f
       0.006750266660434735 0.0022356140337658247
000060 31 f9 2f 51 06 43 79 bf fd 63 d6 ef 73 eb 60 bf
       -0.006167435337373115 -0.0020653976814171125
000070 09 e2 3a 1a b7 e2 5c bf a9 16 1a 09 16 88 73 bf
       -0.0017630375013323338 -0.004768453670868014
000080 62 97 04 78 84 7c 8e bf bd 1d e7 1b 6f 4d 5a 3f
       -0.014885935700089174 0.0016053757714063887
000090 60 5d df c3 4f 1f 70 bf 4c 27 9d 1b 11 fb 65 bf
       -0.003936111052062458 -0.002683194555093948
0000a0 56 ef 93 32 2e d7 4e bf b8 dc 02 2f 5f 21 8a 3f
       -0.000941178853423245 0.012758964178244944
0000b0 03 15 ad bb ee 17 8a 3f 7c 50 59 a7 92 2d 81 3f
       0.012740960218830205 0.00838770459373727
0000c0 95 d7 ed 5b 4a 92 74 3f c7 77 59 c5 20 c1 7b 3f
       0.0050223259594214436 0.006775978099168917
0000d0 19 34 6c 8a 4d 96 93 bf 22 3e 37 13 ca a0 99 bf
       -0.01912804753651551 -0.025027425215567452
0000e0 ea df e7 7e 0f df 93 bf b3 95 68 9a b0 fc 9b bf
       -0.019405595894539752 -0.02733112280306722
0000f0 08 7d dd b2 a7 4e 8b bf 41 d7 cc 61 3a 1b 7d 3f
       -0.013333616395981199 0.00710604482155991
000100 86 af 87 3c b9 76 8f bf 14 4d bd 04 10 81 8f bf
       -0.015363166007737804 -0.015382886070858727
000110 33 3c 7d 1a f7 9f 8e bf bd 2f 13 0e d6 20 90 bf
       -0.014953546996961808 -0.015750259980265236
000120 38 4a 90 47 d7 51 95 bf 0c f1 01 59 64 ff 6d 3f
       -0.020820010893723956 0.003661819449972131
000130 8e 06 19 92 29 06 79 bf 52 c3 bc 36 ca dd 6e 3f
       -0.006109392533802839 0.0037678670395497127
000140 7c a9 d4 04 d0 6f a0 bf 71 64 ef 32 b9 57 8e bf
       -0.03210306223839418 -0.0148157566708724
000150 5d ce 4b 63 7c e8 8d bf 9f 19 bf b3 a4 5d 93 bf
       -0.01460358789470389 -0.018911908598761348
000160 e0 1a df 11 f9 f1 96 bf a3 8c 56 75 be 5a 8d bf
       -0.022407428470411328 -0.014333236652254227
000170 77 04 dd bb ba 05 a0 bf 9e 3e 5b de df d0 ae bf
       -0.03129371207479264 -0.06018733586608714
000180 d4 86 9e 06 20 3a a4 bf eb 6b 3d 50 da b5 85 bf
       -0.03950595932771042 -0.01060076291439845
000190 a5 c0 a3 b7 a9 a4 86 3f 80 c3 fa 6d 41 17 99 3f
       0.01105625716851961 0.024502775514239072
0001a0 25 ce 59 11 77 66 ac 3f 84 d8 d3 71 71 7c a4 3f
       0.05546924673845081 0.040011925835572476
0001b0 79 e2 5f 80 e9 bb 93 3f 29 db 56 d9 78 5a 93 3f
       0.019271515331612286 0.01889981104406072
0001c0 96 61 c6 15 e1 8b 73 bf e8 2d 84 29 f8 d5 5e bf
       -0.004772071112164508 -0.0018820689638826497
0001d0 91 b5 1b c1 14 41 81 3f 9b c4 57 0c a6 ab 7b 3f
       0.008424913542934205 0.006755493760907029
0001e0 ba 3f b3 32 f3 55 77 3f 8a 1e 8e fe 03 b8 97 3f
       0.005697202675221941 0.02316290131741864
0001f0 6d 0e fc e5 f4 e9 88 3f 0e 10 d2 63 5b 40 8d 3f
       0.012164986866543626 0.014282907470494901
000200 b1 2f f8 92 de 14 95 3f 19 49 ae 5a 60 6d 90 3f
       0.020587423057847058 0.01604223779174516
000210 37 8e 9d 30 e9 ac 8b 3f 3d e7 d5 63 79 f2 7b 3f
       0.013513395115018685 0.006823038272495027
000220 32 08 14 cd 33 b6 6e bf 50 27 5a 4d eb 72 44 bf
       -0.0037489902248362345 -0.0006240509926140701
000230 85 7d be 02 0b af 81 bf 0d 19 f8 a6 d8 51 83 bf
       -0.008634649296992656 -0.009433453174108064
000240 03 3b f5 a7 8f ff 72 3f 1f 46 e5 ff 9d 0f 83 3f
       0.004638253361305858 0.009307131168188097
000250 bd eb e9 8b a9 4a 4a 3f 33 9e f3 79 59 7e 51 bf
       0.0008023574699359475 -0.0010677217285833928
000260 05 41 8d 0b 39 5a 49 3f 9e 04 3b a5 c2 02 87 bf
       0.0007736948528905002 -0.011235733668743027
000270 ed 6e b6 7a 61 7a 87 bf 17 62 cf a3 44 b6 59 3f
       -0.011463891560928608 0.0015693350135191958
000280 b5 81 cf 73 99 53 84 3f 4e 36 de 08 59 ce 7a bf
       0.009925078245886046 -0.0065444448390628695
000290 42 d1 e8 c2 0d 95 5a 3f cd 08 e1 7b 41 1e 76 3f
       0.0016224512470560258 0.005399947926038884
0002a0 46 ba eb 5d 1c 8d 91 bf 71 72 84 1c f3 d2 94 bf
       -0.017139857513877275 -0.02033595906788083
0002b0 6f 43 24 8e 3a ad 93 bf 75 1d f2 c1 5a a4 7e bf
       -0.019215502668035563 -0.007480959436299774
0002c0 53 f9 88 e8 0a 89 8a bf da 2b 25 81 06 d4 97 bf
       -0.01295670053616208 -0.023269750244519695
0002d0 4d 77 67 06 66 41 7f bf 14 26 ed 17 28 c9 7e 3f
       -0.007630728278369703 0.00751605664738399
0002e0 39 06 01 87 6d d6 92 bf f8 c4 dd 15 62 6c 66 bf
       -0.018396102299681003 -0.0027372279864087377
0002f0 df ab 4a 78 d4 4f 94 3f e8 75 c5 6f 54 a7 90 3f
       0.019835777132055084 0.016263312646847355
000300 4c 8e 1a b0 d3 0f 8a 3f 51 18 a0 97 6e 27 a4 3f
       0.012725499927291349 0.03936334229369776
000310 7d e6 93 d8 27 0e 59 3f 7e 20 b3 6d 13 71 80 3f
       0.0015292538758430445 0.008028175149221047
000320 a1 bf db 19 2e ae 82 bf 2b 98 fd 55 f1 0e 81 bf
       -0.009121284641395113 -0.008329282223439169
000330 94 9c 07 76 f3 4e 98 bf 99 41 cc 2f 0e 49 92 3f
       -0.023738674239123528 0.017856809298849894
000340 ea 97 da 34 e4 38 88 bf d4 0a 02 de 97 33 93 3f
       -0.011827261794063976 0.018751500058452233
000350 b9 96 95 f3 02 f0 91 3f b0 8b 68 9e 07 d8 88 3f
       0.017517133824546536 0.012130794069042355
000360 5b 2c 80 d4 33 2f 4f 3f a4 0b c9 0f f8 ae 88 3f
       0.0009516718937460188 0.012052476865511093
000370 e3 73 95 79 a0 4f 71 bf 41 7d 63 8c 72 2a 73 3f
       -0.004226328711720992 0.0046791529223065296
000380 27 7c 35 36 b3 fe 70 3f 03 91 14 c1 ac 97 7b 3f
       0.004149150892174303 0.006736445256397386
000390 cf 93 be 74 97 3c 8f 3f 13 72 24 5c 13 b2 61 3f
       0.015252288103349358 0.0021601083873419385
0003a0 d5 31 f4 ff 54 ba 84 bf df 33 25 49 52 b5 5b bf
       -0.010121025143711751 -0.0016911796161196352
0003b0 c1 46 1c 49 5a 4c 43 3f b4 c4 03 40 c2 c3 74 bf
       0.0005889359328838593 -0.005069502629553902
0003c0 78 56 42 c4 a6 93 82 3f 02 76 b4 61 d6 3f 91 3f
       0.009070685257295028 0.01684508296340504
0003d0 66 ef 56 bd 7d 9b 9d 3f 92 86 b6 ed 6d 8c 87 3f
       0.028913464242335783 0.011498316590237399
0003e0 81 aa f4 31 98 9e 7a 3f e5 c9 22 24 75 ab 58 3f
       0.006498903763069054 0.0015057224232292107
0003f0 10 43 4f 86 c1 6a 80 3f 87 d0 af 64 7a 16 89 bf
       0.008016120826057654 -0.012249904821125547
000400 25 7c 0a ac 96 c1 6b bf 4c f4 81 2d e2 04 89 3f
       -0.0033882086575682973 0.012216345800192617
000410 0a 0c ec cc fd da 77 3f df f3 d5 c6 c2 66 76 bf
       0.0058240808564305 -0.005469094130032353
000420 b6 ee a8 5e 09 75 66 3f 18 af 24 aa 5d 62 6f bf
       0.002741354275057474 -0.0038310841929582
000430 65 d7 93 4e 51 c2 90 bf 99 61 d7 30 a2 82 95 bf
       -0.016366262837400742 -0.0210061399755844
000440 dd 3f 1c 3c f7 cf a2 bf 67 aa ee bd 24 5e 9f bf
       -0.03674290283936419 -0.030632566540285924
000450 e7 a5 36 b0 03 d2 99 bf 12 8a c7 53 3f 31 97 bf
       -0.02521520388623868 -0.022648801315776686
000460 78 2f ad 9c 29 c3 7c bf 40 9e 95 47 6c ec a4 bf
       -0.007022059008544683 -0.040866264093719185
000470 25 ca 77 d1 d2 b3 a5 bf 12 0f 73 a4 6a 83 ae bf
       -0.04238756949407144 -0.05959637887420234
000480 25 47 24 d1 10 28 a4 bf 1d 85 f2 e7 2e 23 b0 bf
       -0.03936817696570775 -0.06303685343529648
000490 c8 6b f4 36 8e cf 93 bf 76 97 26 a7 04 10 5e bf
       -0.019346448997662496 -0.0018348737181468045
0004a0 4e a1 f8 59 6b e5 9e 3f ba 6d 4c fd 9c f7 68 3f
       0.030172040335089627 0.0030477586937089603
0004b0 88 75 2c 92 76 3b 88 3f 18 9e 4f 3f 96 3c 8d 3f
       0.011832166992060036 0.014275716597651075
0004c0 ed 16 85 03 15 97 8c bf a0 2a 31 74 c5 e2 95 bf
       -0.013960041208189245 -0.021372876374054273
0004d0 9e 91 ff 53 9c dd 98 bf 56 6b a3 61 35 23 63 bf
       -0.024282877566194842 -0.0023361246686425625
0004e0 f7 b1 87 de 80 e1 77 bf 64 b2 5f d6 0a db 83 bf
       -0.005830291171588168 -0.009695133845491095
0004f0 8b e8 7c c4 02 97 51 3f ad f0 de 32 2b 88 96 3f
       0.001073601439158386 0.0220038175391301
000500 93 5c 1f ad 72 34 96 3f cd 9d 96 b1 44 c7 a2 3f
       0.021684448067244743 0.03667654674364549
000510 dc 40 8c c6 ac 02 ab 3f fe 76 40 26 db 2d a1 3f
       0.05275478290252675 0.03355297891560659
000520 26 f1 e2 da 8e 60 9e 3f 56 3a 01 72 06 59 97 3f
       0.02966521464326024 0.02280054159956032
000530 1b ee 21 28 a4 6c 94 3f 1f 1b db 47 d5 e0 87 3f
       0.01994568343114454 0.011659303908698569
000540 d9 fd a3 df 2b 41 8b 3f d7 3d eb cd ca d2 71 3f
       0.013307898294896358 0.004351417736600158
000550 e0 94 d7 2e 0b 77 79 bf 29 e5 f2 41 5c 9f 72 bf
       -0.006217044528488119 -0.004546509152697533
000560 cb e3 dd 2a 3c 20 63 bf 7e 9b 00 9c f6 1f 69 3f
       -0.0023347067971681615 0.0030669991101776586
000570 8d 3a 8c c8 3c 91 79 3f 9f e0 79 0c e3 c4 8e 3f
       0.006242024836650939 0.015023969476928576
000580 1f 81 6c 15 48 02 68 3f 80 37 8b d7 35 2f 41 3f
       0.0029307754406461407 0.0005244267368540306
000590 95 8d 12 61 9b 1a 31 bf b4 10 6d ec 73 30 8a bf
       -0.00026098531186332627 -0.012787728932046917
0005a0 d2 1f a0 ba 2d fb a8 bf a3 87 0c 20 73 ec a1 bf
       -0.048791340857917156 -0.03500709310743779
0005b0 37 92 93 ab c8 36 92 bf 65 46 a0 7c 92 63 89 bf
       -0.01778710887164633 -0.01239695017651172
0005c0 48 82 a4 ee a0 18 84 bf db 75 d8 44 59 73 97 3f
       -0.009812600405497154 0.02290095789623146
0005d0 7f 3c 94 c7 ec 6c 9d 3f c1 08 e6 b6 0b fa 85 3f
       0.028735828095758805 0.010730830687638694
0005e0 21 3d 0f e3 da 44 5f bf b1 5e 37 08 4a 87 63 bf
       -0.0019085061614879178 -0.0023838468493798328
0005f0 f7 b4 4d a0 ed f3 79 bf a6 e2 7f 13 06 87 78 bf
       -0.006336143710411016 -0.005988143668212464
000600 81 33 2b 6a 3c 12 8f 3f f4 20 a5 0b df ee 96 3f
       0.015171501150143875 0.022395596585995173
000610 fc 54 ee ea 4f 98 98 3f b4 05 d7 3b 2b 74 5d 3f
       0.024018524850892384 0.0017977163509928897
000620 5e 3c ad 6c 1c 71 74 3f 9e 92 a5 c1 19 70 89 bf
       0.0049906835873364235 -0.01242084619725264
000630 42 29 3d 57 8e 17 99 bf 54 3f e4 75 f1 82 98 bf
       -0.02450392157997184 -0.02393700868657274
000640 90 71 cd c3 79 61 84 bf 30 b3 b7 1f 3f c0 9a bf
       -0.009951545036238213 -0.026123987494361234
000650 11 18 6a 86 86 b6 a1 bf 72 4d 21 0d da b1 ac bf
       -0.034595683963786546 -0.056044401266855184
000660 2d a7 47 63 4d cd 88 bf 2c 7d da 54 89 bb 52 bf
       -0.012110333053857747 -0.001143344986679849
000670 57 e1 a4 43 88 b9 a2 bf 26 c3 49 26 02 1b 8d bf
       -0.03657174897893139 -0.014211670678578491
000680 60 11 db cd c6 a3 97 bf 3b f3 c3 3b eb 34 b8 bf
       -0.02308569556659401 -0.09455747803799579
000690 be e5 47 13 9e 86 ba bf 7e 68 eb dd 76 f5 a9 bf
       -0.10361659975742207 -0.050700869169035365
0006a0 20 db c9 6a 44 9e 93 bf 5c 44 49 e9 00 7f 7d 3f
       -0.01915842916283872 0.00720119815794459
0006b0 0a 5d b0 1d 2e 32 ab 3f db 00 d9 cc b3 06 b3 3f
       0.05311721908963747 0.07432101966060449
0006c0 44 be 86 05 fa f1 ac 3f 4c 52 6c ba f6 e6 9a 3f
       0.05653363530597891 0.026271681908001818
0006d0 1b f0 1f 35 9e 4b a5 3f 63 94 8b 1f a0 09 a1 3f
       0.041592544541316744 0.03327656159471173
0006e0 23 ae 88 5c 56 12 93 3f ad 4f 8c 93 c8 c0 9e 3f
       0.01862463893682621 0.030032285695668005
0006f0 62 06 c2 be a2 7e 79 bf 3d c2 72 71 64 31 8a bf
       -0.006224284861788472 -0.012789520942846905
000700 60 67 e0 39 f8 46 85 bf 3d 3e 5c 4f 0b 14 67 bf
       -0.010389270082715008 -0.0028171749971830627
000710 1c 52 83 f5 7b 83 8e 3f db 58 86 8d 40 f6 9a 3f
       0.01489922373767976 0.026330002439487337
000720 f8 36 e3 98 28 1e 91 3f 93 29 e1 90 3d 0f 95 3f
       0.01671660836364361 0.020565950362916374
000730 b1 8d 5f 66 c8 d2 92 3f 54 a6 a0 6d d7 89 50 3f
       0.01838219761692778 0.0010094264785131162
000740 ed ef bd 49 0e 79 80 bf bd 7c ba 2b 9a 9a 65 3f
       -0.008043395638871654 0.002637196650382727
000750 73 76 00 3b f5 95 88 3f ac ed 43 cd e8 be 7e 3f
       0.012004772055713908 0.007506284124470335
000760 20 61 1f 7c e2 92 75 bf 7a 21 cf 17 b2 40 90 3f
       -0.005267033297023965 0.01587179441756479
000770 16 dc a7 76 d5 a1 9b 3f 66 cc 28 87 73 bd 84 3f
       0.02698453461377078 0.010126974642025565
000780 be d6 c4 c3 0b c6 95 3f 31 6c 94 b8 92 dc 9b 3f
       0.02126329786661673 0.027208607211928807
000790 7f 9b a3 96 6d 5d 70 3f da 68 2e 45 ba 7f 8d bf
       0.003995349960155602 -0.014403777347798675
0007a0 cc 25 2a cc 88 72 9e bf f6 54 e5 86 8d 53 a1 bf
       -0.029733788930149704 -0.033840582577491604
0007b0 9e f7 b7 b6 95 df a1 bf 6e 23 77 f0 d5 2e 80 bf
       -0.03490894179775171 -0.007901832009240297
0007c0 78 44 56 80 e8 af 90 bf c4 6e 49 1c e6 25 92 3f
       -0.016296036561076893 0.017722697712413873
0007d0 2c ed 91 d3 7a 00 66 3f 31 bb 45 cc 48 bb 82 bf
       0.002685775657082742 -0.00914627908124785
0007e0 ab 01 eb 09 e5 c3 9f bf 68 51 47 10 85 56 a2 bf
       -0.03102071641001351 -0.03581634353364188
0007f0 2b a6 cd 9e ba 9c ab bf 97 7c 67 58 99 e3 96 bf
       -0.05393012226597834 -0.02235259630276384
