transformer_market/outputs/transformer_market/dataset/ibex_w60_p5_scaled.npz (npz, 203223 bytes, 2 tensors)

X f8 [1200, 60, 13]
-0.462713234746405 0.2222161549622985 -1.0191652032148035 0.27085286046520335 -0.1391129947865561 0.8945657724816598 0.6453410237401928 0.28825346430300647
-0.8923137017104351 -0.30162119252473213 0.49630733644533853 0.8056043950573507 -0.7645161878095674 -0.36948321544738083 -0.5477819971267698 -1.133454135218115
-0.019678798428790785 -0.19677549973755676 0.8564094629326581 0.6399294188902626 -0.28904529620623676 -0.4360900550091451 0.20210151292817957 0.1236095162700877
-0.6326716794722056 -1.4287136088697248 0.180729676373241 -0.9590026194713592 -0.675863146496172 -0.11310929849043748 -0.06016997357934463 0.1154690520862652
0.4896676594231554 0.6031531464885154 0.4137861338470087 -1.0848600407051947 3.2023260871885464 -0.5997217402947329 -0.8465256399447156 1.758832012294823
-0.15823854765160517 -0.30991290603987487 0.6973745180991131 0.7284909103459734 0.3669632726455392 0.7169120293629369 0.11890327422722638 1.0984881626878469
-0.4048732658477033 -0.43862535496507976 -0.8723889391060012 -0.08301777627352547 -0.6278038910745272 0.21956576341135572 -0.29427473409416816 0.1707230360824429
0.4804849898747597 0.1776599858557424 0.7118016133161321 -0.19554935673969273 -0.8772410797398019 -0.7586303572026818 -0.09453632338148532 -0.9076740856832985
-0.8524474820541965 -0.4044101619151073 0.24641714307473234 -0.3997020589128413 -0.1435816304190203 0.3400856204810978 0.17664590961201293 0.7185840482804203
-0.012298527407384826 -0.27085453460058234 0.5297284984044317 0.908668341218038 -0.9029310754217379 -0.24157675784406343 -0.8135626047631062 0.04189714602925888
-0.3506785196509596 -0.5787406374152586 0.019324334379847947 0.024579984447343505 0.6961265561699321 0.4031817935843718 -1.0854309059571752 0.5243384003300594
-0.567647444312885 -0.8827536179627296 -1.23510350599165 1.099245257992044 0.46491791339332084 0.17619733927924966 0.16830830094172178 0.4775188460952037
0.03372135330734812 0.7047745014491478 1.004063107584135 1.1882136806736316 -0.13313747839461398 0.975309403992978 -0.6087629306622047 0.33631540812716876
-0.5059150159412682 -0.5781074254707809 0.47635304050418437 -0.046700340409369274 0.21511437055989893 0.050890080122156685 0.503424950085218 -0.4165076628665969
-0.11983754945942121 -0.7797538016455888 1.6566141641982455 -0.6975678768565107 0.6706495255000269 1.6442536498514875 0.4682847574075111 0.6803813093364477
0.8871898686138591 0.8681931867222574 0.14314156134582834 0.631260966259844 0.8895475321198614 1.726424256315254 -0.7356332328733911 -0.27248179503279507
-0.5580726221054012 2.1201053986447485 0.17641375513196725 0.7357822109179077 1.0683378112954833 0.8629330308626152 0.8482218221360137 0.08323695922386241
0.4525273990607186 0.02588465740901542 0.026651424075284473 0.7869747944755275 1.3819642431721646 -0.5457879631324298 0.5210816590940807 0.5383004987674189
1.3583804322989605 0.9660480736712561 1.0097973614613367 0.9957990051070781 0.036447903196848895 0.420051895857324 -0.5416840317981165 -0.20005420619446843
1.3934643534343998 -0.8131625528233505 -0.4485086528106366 2.0308650852835086 -1.1305127137103856 0.3314692430915447 1.229882480181352 0.19229025663992858
0.39231558317457654 0.3004115677965071 0.10684578027653542 1.9955122745795069 0.07441830622186478 5.746798138046905 1.0258373124842068 0.2270624615220802
1.5416046756240938 1.775973602324385 1.3823891116873768 1.5441898445302886 1.1966087642403327 1.02933234482641 0.30771315371340485 0.2757395720701876
-0.031051699122789333 0.7211974946668361 -0.2999362726052115 0.22944755141218526 0.24366231605271113 -0.5460345656572022 -0.2923168481007029 0.49050490798715457
1.019374301630921 0.8792690317876865 0.8079545267664023 0.24864033869522095 0.10044880607629093 0.03497299816338941 -0.08518225127735081 2.2575941322501647
-0.010863570253681665 0.2052131023700549 -0.5705013199002673 -0.34241339632122114 0.25155995797310066 0.759276373028271 0.529167784317926 0.5891897797747251
0.2387098755089752 0.09912078042238519 1.5258384819262794 -0.9536068229380303 1.9755141635612388 0.9390800092597625 0.40618329396814207 0.6046207470128051
0.2589809381651684 0.1229198159544775 0.5059025880504349 0.49102541297551566 0.65536544132793 0.0727810026951131 -0.011217091349999818 0.042773446868796736
0.9367581748914561 0.16221211227107532 -0.6504656579137768 0.4383742177686166 -1.6708374147752293e-05 -0.8225553417996442 0.2647490525924805 0.04546750230530372
-0.10190515616651191 0.29277960268511277 0.12174171654608414 -0.032264277374876166 0.7864489273363462 -0.5035738874386513 1.8128868318713183 0.8003681566096345
0.39566983222509106 1.007496988028251 1.812537948779672 0.28158869930638786 0.4807088567415055 0.8053479513417783 1.038811791671467 0.3795277987426976
0.21508603717742256 0.7992529262703812 1.164186465725736 -0.46360527529897344 0.8994971120083969 0.2575072906597349 0.5025095214006026 0.5727005825647663
0.6799709854930807 0.9714146442607626 1.0049711852500987 1.2012701495316958 0.14662099503706125 0.025779663860766796 -0.13770546242530263 0.6646491370254966
00000000: 2a61 aaf8 179d ddbf 3f5c 1a37 9471 cc3f
00000010: dd75 102c 804e f0bf 6b78 6e3c a755 d13f
00000020: be47 8761 74ce c1bf 26c0 1d66 48a0 ec3f
00000030: b566 f737 a2a6 e43f aaf7 88a8 be72 d23f
00000040: ffce d376 d58d ecbf d126 6bf9 c24d d3bf
00000050: d80b b3d8 7fc3 df3f 3d20 49de 82c7 e93f
00000060: 30f3 fca6 ea76 e8bf 741d b1ed 9ca5 d7bf
00000070: c5e7 5f1c 6e87 e1bf bb71 a4cd a022 f2bf
00000080: 5276 b4ce ad26 94bf 3e70 0388 f02f c9bf
00000090: 6bfb 68d1 b467 eb3f 0939 bc42 4d7a e43f
000000a0: ca2d 91d7 b77f d2bf f401 1843 e6e8 dbbf
000000b0: d8d3 3f5e 76de c93f 64ba da8d dfa4 bf3f
000000c0: 5608 8ead d83e e4bf 3121 17cd 02dc f6bf
000000d0: 3449 b868 2622 c73f de0c ed42 26b0 eebf
000000e0: 16ba d8bf aba0 e5bf 87d2 e321 bbf4 bcbf
000000f0: a2ed 7249 99ce aebf 061f 693a 618f bd3f
00000100: 8667 c805 b756 df3f b8b9 d4d3 074d e33f
00000110: ca50 1ad6 787b da3f 800e b933 965b f1bf
00000120: d2d1 bc23 5d9e 0940 c183 a8a5 eb30 e3bf
00000130: 8037 59f0 bc16 ebbf 196d 3f09 2d24 fc3f
00000140: cca9 9025 2941 c4bf 602c 03f1 9cd5 d3bf
00000150: 1a95 895d e450 e63f aed0 6b2b cc4f e73f
00000160: 5020 b685 537c d73f 3921 077f f1f0 e63f
00000170: 4a79 31ea 7170 be3f 5099 dc52 6893 f13f
00000180: 61cc f58e 71e9 d9bf c35e b114 7012 dcbf
00000190: f346 5b35 9cea ebbf 08d9 142a a740 b5bf
000001a0: b8ee 8e2f f816 e4bf 6126 961e bb1a cc3f
000001b0: 9e4e beb1 65d5 d2bf 0def 52a0 40da c53f
000001c0: 71c8 6e1d 44c0 de3f 4974 87fa 8fbd c63f
000001d0: b5d9 4d2d 14c7 e63f 63b4 f9e5 c207 c9bf
000001e0: ef15 86e2 5b12 ecbf b006 be2b b346 e8bf
000001f0: a022 3551 8833 b8bf 8ef7 2d86 aa0b edbf
00000200: ca5e 1ff1 3f47 ebbf dd1b e628 dbe1 d9bf
00000210: 5601 57d1 988a cf3f 502b cbf1 b794 d9bf
00000220: e15f 7a03 e260 c2bf 8098 737a f6c3 d53f
00000230: febc 604a 559c c63f 8755 59f9 a3fe e63f
00000240: 1188 0768 f82f 89bf 9f4c 0542 ae55 d1bf
00000250: c6ff 0c2e 89f3 e03f 3525 0ea1 cf13 ed3f
00000260: a84f efb5 cfe4 ecbf c5fc 34b9 fceb cebf
00000270: 7e98 9671 b408 eabf 3299 fbef 8a73 a53f
00000280: 4be0 5351 8471 d6bf 4412 d215 0b85 e2bf
00000290: 85b2 b620 c2c9 933f 33a1 59d5 7e2b 993f
000002a0: 1a10 1433 ab46 e63f 6466 7202 bbcd d93f
000002b0: a275 32cc ec5d f1bf c38b 2e53 61c7 e03f
000002c0: 176b 1ff9 2a2a e2bf 546b f283 843f ecbf
000002d0: 948b d6e4 fbc2 f3bf 1abe 1532 8296 f13f
000002e0: f153 5610 37c1 dd3f 2d5d ec68 a28d c63f
000002f0: 9c52 185c 208b c53f b2f6 cc34 ab8f de3f
00000300: 3b8b 43db ec43 a13f e2eb 5841 838d e63f
00000310: 951a 237a a410 f03f d572 3259 ec02 f33f
00000320: b8d3 c91d a60a c1bf e931 3411 bc35 ef3f
00000330: d8c2 c665 fc7a e3bf 6603 c30f 3186 d53f
00000340: f4bc 00b0 7430 e0bf ab18 bf24 db7f e2bf
00000350: 5e33 9476 917c de3f d965 8a65 1be9 a7bf
00000360: 7d29 3a21 de88 cb3f f186 a1bb 430e aa3f
00000370: fd67 13a4 0e1c e03f 48e8 a2c1 0fa8 dabf
00000380: acd0 c273 acad bebf b3fb 9f3e bef3 e8bf
00000390: 4026 95da 7d81 fa3f 03d8 3ade 7952 e6bf
000003a0: 9237 63fe f575 e53f 690d 47ea dc4e fa3f
000003b0: 98f4 91a1 60f8 dd3f 481c 0d06 afc5 e53f
000003c0: fe3f e101 dc63 ec3f b4a0 f213 3dc8 eb3f
000003d0: fcdf 5672 7652 c23f f979 aa32 4a33 e43f
000003e0: 7027 d662 2c77 ec3f 7c52 7e0a 6f9f fb3f
000003f0: cb57 a1b4 4e8a e7bf 6ff5 9a7b 5770 d1bf
00000400: 918a 971d bbdb e1bf 9504 bad1 f9f5 0040
00000410: ed9c 6dd6 b994 c63f 22df 9b22 878b e73f
00000420: 5682 8963 e917 f13f cd2d 46bb 259d eb3f
00000430: 957c 3a17 a224 eb3f 7f5a af71 044f b53f
00000440: 609f e07a 35f6 dc3f b3d7 28f4 8181 9a3f
00000450: 0e42 2ecb 824a 9b3f 0d8f a1c3 e52e e93f
00000460: 46a7 ca89 861c f63f 2289 8651 1877 e1bf
00000470: 0b58 8b71 b3ac e03f b80c b4f7 c139 e13f
00000480: 8c01 c41e edbb f53f dd04 59a6 dde9 ee3f
00000490: 3a04 3147 2128 f03f 2760 0ae0 95dd ef3f
000004a0: 93fa 79b0 4ca9 a23f cb1e d558 21e2 da3f
000004b0: a3d3 2ac0 7955 e1bf 6328 8450 609b c9bf
000004c0: d047 2247 a14b f63f 45a9 5679 6d05 eabf
000004d0: 69dc f2a2 5db4 dcbf 200c 9f31 363f 0040
000004e0: b592 d17f 9416 f2bf d450 adc5 ca36 d53f
000004f0: 1ed6 6440 99ad f33f fbd0 cd95 f79c c83f
00000500: d78a dcd1 b21b d93f 5fab c170 f139 d33f
00000510: add9 00bc 3e5a bb3f 6e5e 6147 9eed ff3f
00000520: db55 72ff 130d b33f 2780 aea6 b8fc 1640
00000530: e12d c262 d469 f03f e07b 31fb 6110 cd3f
00000540: a3a8 12aa 69aa f83f 42ae c84b 636a fc3f
00000550: 4db3 900b 441e f63f a82a 1169 00b5 f83f
00000560: a84e 483b 4f25 f33f 2be9 5b31 2578 f03f
00000570: c9e0 ef82 92b1 d33f 9449 1097 b7a5 d13f
00000580: b3d5 de40 04cc 9fbf 65a3 b1c4 0c14 e73f
00000590: 384e 6ee8 2732 d3bf f236 bb90 895e cd3f
000005a0: af64 5ba7 5330 cf3f c576 3f7b 1d79 e1bf
000005b0: 6e63 aab9 51b5 d2bf b344 95b2 6e64 df3f
000005c0: cb33 7e6d 5b4f f03f 033d fdce f822 ec3f
000005d0: 46bd a373 c3da e93f 78c7 9455 72d3 cf3f
000005e0: 3119 0551 03b7 b93f b3ab b516 fbe7 a13f
000005f0: 9195 6f07 81ce b5bf 663f 2d83 8d0f 0240
00000600: faac a8b7 a33f 86bf 56ee b145 6c44 ca3f
00000610: c87c e9fb 8b41 e2bf 165d bae0 19ea d5bf
00000620: 0791 1ef0 8e19 d03f 7e05 d9f6 fd4b e83f
00000630: b5c0 f746 f1ee e03f e9a2 6886 a4da e23f
00000640: 328a 4592 0b8e ce3f eba4 44be fa5f b93f
00000650: 63a0 ad9c d569 f83f 985c b874 f283 eebf
00000660: 2c7c 54bd b49b ff3f 4923 0385 f10c ee3f
00000670: 1595 f136 e8fe d93f 18e6 dc9b 0d59 e33f
00000680: 273c edc8 2493 d03f ad08 8e4d ac77 bf3f
00000690: 986d d49f 5a30 e03f e105 8fda f56c df3f
000006a0: 7cd3 2df2 c0f8 e43f 2779 589a c6a1 b23f
000006b0: ff33 0984 fcf8 86bf 169a e0b6 66e6 a53f
000006c0: 276c ad47 ecf9 ed3f 9f13 9cd2 5dc3 c43f
000006d0: 3b25 fd5a 9dd0 e4bf 5a73 2ebc 520e dc3f
000006e0: b8c8 81ba 1e85 f1be 11bf 8594 5f52 eabf
000006f0: 2c07 a202 a6f1 d03f 203a dd36 8447 a73f
00000700: b468 07d1 7416 babf cffa 9da8 e6bc d23f
00000710: 51d4 1f13 772a bf3f d4ee 4e80 f184 a0bf
00000720: ce48 dcf0 962a e93f 1c65 35fc 461d e0bf
00000730: 24c8 639f 9501 fd3f f1bd 2cae 9d9c e93f
00000740: abea 5a8f a752 d93f c065 6629 b51e f03f
00000750: 2648 ccca 2700 fd3f 5c6c 9c9b 8c05 d23f
00000760: 558c a614 efc3 de3f b23b 1d11 69c5 e93f
00000770: 90d9 fe1c f99e f03f d674 e1f6 2e4a d83f
00000780: 276b c073 f087 cb3f e708 72df 7a93 e93f
00000790: 47ce cbfc 81a0 f23f f460 ea75 b5ab ddbf
000007a0: 3b85 dd2a aec8 ec3f 405e f7db ff7a d03f
000007b0: b003 0bd9 8e14 e03f 9781 102c 9053 e23f
000007c0: 567e 1d83 52c2 e53f 0b93 fe29 d415 ef3f
000007d0: fe24 61aa 5c14 f03f 0565 5e0c 6738 f33f
000007e0: 03ab 4b0d 7ac4 c23f 7f47 bcf4 fb65 9a3f
000007f0: 1672 cc24 55a0 c1bf 28da 5a44 ce44 e53f

y_reg f8 [1200]
-0.001782889158926479 0.0094920091065419 0.0012349582768687068 0.02165062902153239 0.006969671393951437 0.01747918903264774 0.006365325571559603 0.00543546024391384
0.00269671704127851 0.013817053034676216 0.006750266660434735 0.0022356140337658247 -0.006167435337373115 -0.0020653976814171125 -0.0017630375013323338 -0.004768453670868014
-0.014885935700089174 0.0016053757714063887 -0.003936111052062458 -0.002683194555093948 -0.000941178853423245 0.012758964178244944 0.012740960218830205 0.00838770459373727
0.0050223259594214436 0.006775978099168917 -0.01912804753651551 -0.025027425215567452 -0.019405595894539752 -0.02733112280306722 -0.013333616395981199 0.00710604482155991
-0.015363166007737804 -0.015382886070858727 -0.014953546996961808 -0.015750259980265236 -0.020820010893723956 0.003661819449972131 -0.006109392533802839 0.0037678670395497127
-0.03210306223839418 -0.0148157566708724 -0.01460358789470389 -0.018911908598761348 -0.022407428470411328 -0.014333236652254227 -0.03129371207479264 -0.06018733586608714
-0.03950595932771042 -0.01060076291439845 0.01105625716851961 0.024502775514239072 0.05546924673845081 0.040011925835572476 0.019271515331612286 0.01889981104406072
-0.004772071112164508 -0.0018820689638826497 0.008424913542934205 0.006755493760907029 0.005697202675221941 0.02316290131741864 0.012164986866543626 0.014282907470494901
0.020587423057847058 0.01604223779174516 0.013513395115018685 0.006823038272495027 -0.0037489902248362345 -0.0006240509926140701 -0.008634649296992656 -0.009433453174108064
0.004638253361305858 0.009307131168188097 0.0008023574699359475 -0.0010677217285833928 0.0007736948528905002 -0.011235733668743027 -0.011463891560928608 0.0015693350135191958
0.009925078245886046 -0.0065444448390628695 0.0016224512470560258 0.005399947926038884 -0.017139857513877275 -0.02033595906788083 -0.019215502668035563 -0.007480959436299774
-0.01295670053616208 -0.023269750244519695 -0.007630728278369703 0.00751605664738399 -0.018396102299681003 -0.0027372279864087377 0.019835777132055084 0.016263312646847355
0.012725499927291349 0.03936334229369776 0.0015292538758430445 0.008028175149221047 -0.009121284641395113 -0.008329282223439169 -0.023738674239123528 0.017856809298849894
-0.011827261794063976 0.018751500058452233 0.017517133824546536 0.012130794069042355 0.0009516718937460188 0.012052476865511093 -0.004226328711720992 0.0046791529223065296
0.004149150892174303 0.006736445256397386 0.015252288103349358 0.0021601083873419385 -0.010121025143711751 -0.0016911796161196352 0.0005889359328838593 -0.005069502629553902
0.009070685257295028 0.01684508296340504 0.028913464242335783 0.011498316590237399 0.006498903763069054 0.0015057224232292107 0.008016120826057654 -0.012249904821125547
-0.0033882086575682973 0.012216345800192617 0.0058240808564305 -0.005469094130032353 0.002741354275057474 -0.0038310841929582 -0.016366262837400742 -0.0210061399755844
-0.03674290283936419 -0.030632566540285924 -0.02521520388623868 -0.022648801315776686 -0.007022059008544683 -0.040866264093719185 -0.04238756949407144 -0.05959637887420234
-0.03936817696570775 -0.06303685343529648 -0.019346448997662496 -0.0018348737181468045 0.030172040335089627 0.0030477586937089603 0.011832166992060036 0.014275716597651075
-0.013960041208189245 -0.021372876374054273 -0.024282877566194842 -0.0023361246686425625 -0.005830291171588168 -0.009695133845491095 0.001073601439158386 0.0220038175391301
0.021684448067244743 0.03667654674364549 0.05275478290252675 0.03355297891560659 0.02966521464326024 0.02280054159956032 0.01994568343114454 0.011659303908698569
0.013307898294896358 0.004351417736600158 -0.006217044528488119 -0.004546509152697533 -0.0023347067971681615 0.0030669991101776586 0.006242024836650939 0.015023969476928576
0.0029307754406461407 0.0005244267368540306 -0.00026098531186332627 -0.012787728932046917 -0.048791340857917156 -0.03500709310743779 -0.01778710887164633 -0.01239695017651172
-0.009812600405497154 0.02290095789623146 0.028735828095758805 0.010730830687638694 -0.0019085061614879178 -0.0023838468493798328 -0.006336143710411016 -0.005988143668212464
0.015171501150143875 0.022395596585995173 0.024018524850892384 0.0017977163509928897 0.0049906835873364235 -0.01242084619725264 -0.02450392157997184 -0.02393700868657274
-0.009951545036238213 -0.026123987494361234 -0.034595683963786546 -0.056044401266855184 -0.012110333053857747 -0.001143344986679849 -0.03657174897893139 -0.014211670678578491
-0.02308569556659401 -0.09455747803799579 -0.10361659975742207 -0.050700869169035365 -0.01915842916283872 0.00720119815794459 0.05311721908963747 0.07432101966060449
0.05653363530597891 0.026271681908001818 0.041592544541316744 0.03327656159471173 0.01862463893682621 0.030032285695668005 -0.006224284861788472 -0.012789520942846905
-0.010389270082715008 -0.0028171749971830627 0.01489922373767976 0.026330002439487337 0.01671660836364361 0.020565950362916374 0.01838219761692778 0.0010094264785131162
-0.008043395638871654 0.002637196650382727 0.012004772055713908 0.007506284124470335 -0.005267033297023965 0.01587179441756479 0.02698453461377078 0.010126974642025565
0.02126329786661673 0.027208607211928807 0.003995349960155602 -0.014403777347798675 -0.029733788930149704 -0.033840582577491604 -0.03490894179775171 -0.007901832009240297
-0.016296036561076893 0.017722697712413873 0.002685775657082742 -0.00914627908124785 -0.03102071641001351 -0.03581634353364188 -0.05393012226597834 -0.02235259630276384
00000000: c0a0 51a8 fa35 5dbf bac9 7ce5 8b70 833f
00000010: 1210 4f5a ca3b 543f 885b 571e 952b 963f
00000020: 7fd6 36eb 3a8c 7c3f b5f6 0585 10e6 913f
00000030: b827 8812 8712 7a3f 84f5 c73f 7e43 763f
00000040: 21a3 f6ef 6c17 663f 18cb 4977 1d4c 8c3f
00000050: 5bc9 bbe8 2aa6 7b3f 0a08 2b25 6c50 623f
00000060: 31f9 2f51 0643 79bf fd63 d6ef 73eb 60bf
00000070: 09e2 3a1a b7e2 5cbf a916 1a09 1688 73bf
00000080: 6297 0478 847c 8ebf bd1d e71b 6f4d 5a3f
00000090: 605d dfc3 4f1f 70bf 4c27 9d1b 11fb 65bf
000000a0: 56ef 9332 2ed7 4ebf b8dc 022f 5f21 8a3f
000000b0: 0315 adbb ee17 8a3f 7c50 59a7 922d 813f
000000c0: 95d7 ed5b 4a92 743f c777 59c5 20c1 7b3f
000000d0: 1934 6c8a 4d96 93bf 223e 3713 caa0 99bf
000000e0: eadf e77e 0fdf 93bf b395 689a b0fc 9bbf
000000f0: 087d ddb2 a74e 8bbf 41d7 cc61 3a1b 7d3f
00000100: 86af 873c b976 8fbf 144d bd04 1081 8fbf
00000110: 333c 7d1a f79f 8ebf bd2f 130e d620 90bf
00000120: 384a 9047 d751 95bf 0cf1 0159 64ff 6d3f
00000130: 8e06 1992 2906 79bf 52c3 bc36 cadd 6e3f
00000140: 7ca9 d404 d06f a0bf 7164 ef32 b957 8ebf
00000150: 5dce 4b63 7ce8 8dbf 9f19 bfb3 a45d 93bf
00000160: e01a df11 f9f1 96bf a38c 5675 be5a 8dbf
00000170: 7704 ddbb ba05 a0bf 9e3e 5bde dfd0 aebf
00000180: d486 9e06 203a a4bf eb6b 3d50 dab5 85bf
00000190: a5c0 a3b7 a9a4 863f 80c3 fa6d 4117 993f
000001a0: 25ce 5911 7766 ac3f 84d8 d371 717c a43f
000001b0: 79e2 5f80 e9bb 933f 29db 56d9 785a 933f
000001c0: 9661 c615 e18b 73bf e82d 8429 f8d5 5ebf
000001d0: 91b5 1bc1 1441 813f 9bc4 570c a6ab 7b3f
000001e0: ba3f b332 f355 773f 8a1e 8efe 03b8 973f
000001f0: 6d0e fce5 f4e9 883f 0e10 d263 5b40 8d3f
00000200: b12f f892 de14 953f 1949 ae5a 606d 903f
00000210: 378e 9d30 e9ac 8b3f 3de7 d563 79f2 7b3f
00000220: 3208 14cd 33b6 6ebf 5027 5a4d eb72 44bf
00000230: 857d be02 0baf 81bf 0d19 f8a6 d851 83bf
00000240: 033b f5a7 8fff 723f 1f46 e5ff 9d0f 833f
00000250: bdeb e98b a94a 4a3f 339e f379 597e 51bf
00000260: 0541 8d0b 395a 493f 9e04 3ba5 c202 87bf
00000270: ed6e b67a 617a 87bf 1762 cfa3 44b6 593f
00000280: b581 cf73 9953 843f 4e36 de08 59ce 7abf
00000290: 42d1 e8c2 0d95 5a3f cd08 e17b 411e 763f
000002a0: 46ba eb5d 1c8d 91bf 7172 841c f3d2 94bf
000002b0: 6f43 248e 3aad 93bf 751d f2c1 5aa4 7ebf
000002c0: 53f9 88e8 0a89 8abf da2b 2581 06d4 97bf
000002d0: 4d77 6706 6641 7fbf 1426 ed17 28c9 7e3f
000002e0: 3906 0187 6dd6 92bf f8c4 dd15 626c 66bf
000002f0: dfab 4a78 d44f 943f e875 c56f 54a7 903f
00000300: 4c8e 1ab0 d30f 8a3f 5118 a097 6e27 a43f
00000310: 7de6 93d8 270e 593f 7e20 b36d 1371 803f
00000320: a1bf db19 2eae 82bf 2b98 fd55 f10e 81bf
00000330: 949c 0776 f34e 98bf 9941 cc2f 0e49 923f
00000340: ea97 da34 e438 88bf d40a 02de 9733 933f
00000350: b996 95f3 02f0 913f b08b 689e 07d8 883f
00000360: 5b2c 80d4 332f 4f3f a40b c90f f8ae 883f
00000370: e373 9579 a04f 71bf 417d 638c 722a 733f
00000380: 277c 3536 b3fe 703f 0391 14c1 ac97 7b3f
00000390: cf93 be74 973c 8f3f 1372 245c 13b2 613f
000003a0: d531 f4ff 54ba 84bf df33 2549 52b5 5bbf
000003b0: c146 1c49 5a4c 433f b4c4 0340 c2c3 74bf
000003c0: 7856 42c4 a693 823f 0276 b461 d63f 913f
000003d0: 66ef 56bd 7d9b 9d3f 9286 b6ed 6d8c 873f
000003e0: 81aa f431 989e 7a3f e5c9 2224 75ab 583f
000003f0: 1043 4f86 c16a 803f 87d0 af64 7a16 89bf
00000400: 257c 0aac 96c1 6bbf 4cf4 812d e204 893f
00000410: 0a0c eccc fdda 773f dff3 d5c6 c266 76bf
00000420: b6ee a85e 0975 663f 18af 24aa 5d62 6fbf
00000430: 65d7 934e 51c2 90bf 9961 d730 a282 95bf
00000440: dd3f 1c3c f7cf a2bf 67aa eebd 245e 9fbf
00000450: e7a5 36b0 03d2 99bf 128a c753 3f31 97bf
00000460: 782f ad9c 29c3 7cbf 409e 9547 6cec a4bf
00000470: 25ca 77d1 d2b3 a5bf 120f 73a4 6a83 aebf
00000480: 2547 24d1 1028 a4bf 1d85 f2e7 2e23 b0bf
00000490: c86b f436 8ecf 93bf 7697 26a7 0410 5ebf
000004a0: 4ea1 f859 6be5 9e3f ba6d 4cfd 9cf7 683f
000004b0: 8875 2c92 763b 883f 189e 4f3f 963c 8d3f
000004c0: ed16 8503 1597 8cbf a02a 3174 c5e2 95bf
000004d0: 9e91 ff53 9cdd 98bf 566b a361 3523 63bf
000004e0: f7b1 87de 80e1 77bf 64b2 5fd6 0adb 83bf
000004f0: 8be8 7cc4 0297 513f adf0 de32 2b88 963f
00000500: 935c 1fad 7234 963f cd9d 96b1 44c7 a23f
00000510: dc40 8cc6 ac02 ab3f fe76 4026 db2d a13f
00000520: 26f1 e2da 8e60 9e3f 563a 0172 0659 973f
00000530: 1bee 2128 a46c 943f 1f1b db47 d5e0 873f
00000540: d9fd a3df 2b41 8b3f d73d ebcd cad2 713f
00000550: e094 d72e 0b77 79bf 29e5 f241 5c9f 72bf
00000560: cbe3 dd2a 3c20 63bf 7e9b 009c f61f 693f
00000570: 8d3a 8cc8 3c91 793f 9fe0 790c e3c4 8e3f
00000580: 1f81 6c15 4802 683f 8037 8bd7 352f 413f
00000590: 958d 1261 9b1a 31bf b410 6dec 7330 8abf
000005a0: d21f a0ba 2dfb a8bf a387 0c20 73ec a1bf
000005b0: 3792 93ab c836 92bf 6546 a07c 9263 89bf
000005c0: 4882 a4ee a018 84bf db75 d844 5973 973f
000005d0: 7f3c 94c7 ec6c 9d3f c108 e6b6 0bfa 853f
000005e0: 213d 0fe3 da44 5fbf b15e 3708 4a87 63bf
000005f0: f7b4 4da0 edf3 79bf a6e2 7f13 0687 78bf
00000600: 8133 2b6a 3c12 8f3f f420 a50b dfee 963f
00000610: fc54 eeea 4f98 983f b405 d73b 2b74 5d3f
00000620: 5e3c ad6c 1c71 743f 9e92 a5c1 1970 89bf
00000630: 4229 3d57 8e17 99bf 543f e475 f182 98bf
00000640: 9071 cdc3 7961 84bf 30b3 b71f 3fc0 9abf
00000650: 1118 6a86 86b6 a1bf 724d 210d dab1 acbf
00000660: 2da7 4763 4dcd 88bf 2c7d da54 89bb 52bf
00000670: 57e1 a443 88b9 a2bf 26c3 4926 021b 8dbf
00000680: 6011 dbcd c6a3 97bf 3bf3 c33b eb34 b8bf
00000690: bee5 4713 9e86 babf 7e68 ebdd 76f5 a9bf
000006a0: 20db c96a 449e 93bf 5c44 49e9 007f 7d3f
000006b0: 0a5d b01d 2e32 ab3f db00 d9cc b306 b33f
000006c0: 44be 8605 faf1 ac3f 4c52 6cba f6e6 9a3f
000006d0: 1bf0 1f35 9e4b a53f 6394 8b1f a009 a13f
000006e0: 23ae 885c 5612 933f ad4f 8c93 c8c0 9e3f
000006f0: 6206 c2be a27e 79bf 3dc2 7271 6431 8abf
00000700: 6067 e039 f846 85bf 3d3e 5c4f 0b14 67bf
00000710: 1c52 83f5 7b83 8e3f db58 868d 40f6 9a3f
00000720: f836 e398 281e 913f 9329 e190 3d0f 953f
00000730: b18d 5f66 c8d2 923f 54a6 a06d d789 503f
00000740: edef bd49 0e79 80bf bd7c ba2b 9a9a 653f
00000750: 7376 003b f595 883f aced 43cd e8be 7e3f
00000760: 2061 1f7c e292 75bf 7a21 cf17 b240 903f
00000770: 16dc a776 d5a1 9b3f 66cc 2887 73bd 843f
00000780: bed6 c4c3 0bc6 953f 316c 94b8 92dc 9b3f
00000790: 7f9b a396 6d5d 703f da68 2e45 ba7f 8dbf
000007a0: cc25 2acc 8872 9ebf f654 e586 8d53 a1bf
000007b0: 9ef7 b7b6 95df a1bf 6e23 77f0 d52e 80bf
000007c0: 7844 5680 e8af 90bf c46e 491c e625 923f
000007d0: 2ced 91d3 7a00 663f 31bb 45cc 48bb 82bf
000007e0: ab01 eb09 e5c3 9fbf 6851 4710 8556 a2bf
000007f0: 2ba6 cd9e ba9c abbf 977c 6758 99e3 96bf
